Model
Model: "sequential"
________________________________________________________________________________
Layer (type)                        Output Shape                    Param #     
================================================================================
dense (Dense)                       (None, 16)                      12560       
________________________________________________________________________________
dropout (Dropout)                   (None, 16)                      0           
________________________________________________________________________________
dense_1 (Dense)                     (None, 8)                       136         
________________________________________________________________________________
dropout_1 (Dropout)                 (None, 8)                       0           
________________________________________________________________________________
dense_2 (Dense)                     (None, 10)                      90          
================================================================================
Total params: 12,786
Trainable params: 12,786
Non-trainable params: 0
________________________________________________________________________________


