Model
Model: "sequential"
________________________________________________________________________________
Layer (type)                        Output Shape                    Param #     
================================================================================
dense (Dense)                       (None, 8)                       6280        
________________________________________________________________________________
dropout (Dropout)                   (None, 8)                       0           
________________________________________________________________________________
dense_1 (Dense)                     (None, 16)                      144         
________________________________________________________________________________
dropout_1 (Dropout)                 (None, 16)                      0           
________________________________________________________________________________
dense_2 (Dense)                     (None, 10)                      170         
================================================================================
Total params: 6,594
Trainable params: 6,594
Non-trainable params: 0
________________________________________________________________________________


