Model
Model: "sequential"
________________________________________________________________________________
Layer (type)                        Output Shape                    Param #     
================================================================================
dense (Dense)                       (None, 16)                      12560       
________________________________________________________________________________
dropout (Dropout)                   (None, 16)                      0           
________________________________________________________________________________
dense_1 (Dense)                     (None, 16)                      272         
________________________________________________________________________________
dropout_1 (Dropout)                 (None, 16)                      0           
________________________________________________________________________________
dense_2 (Dense)                     (None, 10)                      170         
================================================================================
Total params: 13,002
Trainable params: 13,002
Non-trainable params: 0
________________________________________________________________________________


