Model
Model: "sequential"
________________________________________________________________________________
Layer (type)                        Output Shape                    Param #     
================================================================================
dense (Dense)                       (None, 8)                       6280        
________________________________________________________________________________
dropout (Dropout)                   (None, 8)                       0           
________________________________________________________________________________
dense_1 (Dense)                     (None, 8)                       72          
________________________________________________________________________________
dropout_1 (Dropout)                 (None, 8)                       0           
________________________________________________________________________________
dense_2 (Dense)                     (None, 10)                      90          
================================================================================
Total params: 6,442
Trainable params: 6,442
Non-trainable params: 0
________________________________________________________________________________


